torch/TrainingClassifier/cifar_net.pth (torch, 251604 bytes, 10 tensors)

conv1.weight f4 [6, 3, 5, 5]
000000 75 3d d5 bd dd b5 5b bd c0 54 7c be 8f 65 44 be
       -0.104121126 -0.053640235 -0.24641705 -0.19179367
000010 79 24 3f 3d b0 3b a6 be 37 cc d3 be f7 e1 bc be
       0.046665642 -0.32467413 -0.4136674 -0.36891147
000020 b3 c1 69 be 10 f5 77 be a8 88 4a bd 8f f4 73 bd
       -0.22827797 -0.24214578 -0.04944673 -0.0595594
000030 66 5a fe bc d5 b2 07 be 93 60 c2 bd ae 3b 88 3e
       -0.031048965 -0.13251813 -0.09491076 0.26608032
000040 de 6f ad 3e 3b de a3 3e 98 c5 37 3e ee e2 e2 3d
       0.3387441 0.32005486 0.1794647 0.1107844
000050 6d 76 7c 3e 84 c3 99 3e f4 f7 94 3e b0 29 8a 3e
       0.24654551 0.3003198 0.29095423 0.2698493
000060 36 9b 17 3e f3 74 25 3e ac 0e c9 bd fb f4 91 bd
       0.14805302 0.16157894 -0.098172516 -0.071268044
000070 53 44 b6 3c 36 39 08 3e 5c ea bf bd 0f 53 ab be
       0.022249376 0.13303074 -0.093708724 -0.33461806
000080 23 6b 90 be d3 6b 15 be 82 d3 01 be f2 b2 8a bd
       -0.2820674 -0.14591913 -0.1267834 -0.06772412
000090 d6 ef 38 bd 0e de 97 3d b7 0d a1 3c 5a 38 5f bc
       -0.0451506 0.074154004 0.01965986 -0.013624275
0000a0 18 00 f1 3d 1d 84 80 3e 49 7a 92 3e b3 33 7e 3e
       0.11767596 0.25100794 0.2860892 0.24824409
0000b0 3f f4 b8 3b 54 6d b6 3c a6 79 25 3e 5a f2 87 bc
       0.005644351 0.022268929 0.16159686 -0.016595054
0000c0 5d 8a 96 3d c7 d2 eb ba e2 79 10 3d ba 47 fc 3d
       0.073506095 -0.0017991894 0.035272487 0.12318368
0000d0 8b de 49 bd 56 e0 2b 3e f5 9d e2 3d 8e ef 25 be
       -0.0492845 0.16784796 0.11065284 -0.16204664
0000e0 f6 01 96 be 1c eb 3f be d4 4a 3f be 01 54 cc bb
       -0.2929837 -0.18742031 -0.18680888 -0.0062356
0000f0 1c 98 1e bd 0f 0c 41 bd 7b e0 ef bd e5 53 e7 bc
       -0.03871928 -0.04713064 -0.11712738 -0.028238246
000100 05 5f 3e 3d 5a c9 f1 3d 9d d4 92 3d f7 d9 39 3e
       0.046477336 0.11805983 0.07169459 0.18149553
000110 00 0f 19 3e 9e 35 19 3c 04 28 dd 3d 88 34 84 bd
       0.14947128 0.009351162 0.10798648 -0.06455332
000120 60 39 2e 3d a7 07 25 be b8 b8 6a be de 3d 28 3e
       0.042535186 -0.161162 -0.22922027 0.1642985
000130 5f 00 09 ba d4 2f a3 3c dd ec b2 bd 17 e0 15 bd
       -0.00052261906 0.019920267 -0.08736584 -0.03659066
000140 d2 c1 31 3c be 4e e0 bd 2b 75 bc bd 93 04 26 be
       0.010849433 -0.10952519 -0.092020355 -0.16212682
000150 50 3a 12 be b0 9c 9f bd 66 ab 40 be be 02 5d be
       -0.14280057 -0.07793558 -0.18815383 -0.21583077
000160 2e ca 27 be c7 41 1f be a0 39 3d be c5 de 88 be
       -0.16385719 -0.15552436 -0.18479013 -0.2673246
000170 41 63 eb bd 5e 69 16 be 25 f2 c2 bd 55 3b 3e be
       -0.114935406 -0.14688632 -0.09518842 -0.18577321
000180 2b 6b 0c be f4 30 4d be b6 4b 10 be 16 64 b0 bd
       -0.13712756 -0.20038205 -0.14091381 -0.0861284
000190 ad ff 19 3d cd 9e 91 3b 2d a1 f7 bd 8c cd 87 3c
       0.037597347 0.0044439794 -0.12091289 0.016577505
0001a0 02 39 7b bd 2e 22 9f 3a 16 d5 17 3d 01 d0 22 bd
       -0.061333664 0.0012140924 0.03706845 -0.03974915
0001b0 2b 66 03 3d 68 0e 9f 3b 37 c8 83 bc 57 a0 5c 3c
       0.032079857 0.0048540123 -0.01608668 0.013465962
0001c0 5c 3c 6a 3d 62 52 98 3c fb c3 7e 3d 33 d5 9b 3d
       0.05718647 0.01859397 0.06219862 0.07609024
0001d0 1a 09 dd 3d b8 75 ae 3d c1 18 51 3d 11 84 30 bd
       0.107927516 0.08518547 0.051048998 -0.0430947
0001e0 d7 7d 24 bb 61 ba bc 3d 7c a6 e5 bd df 73 c2 bc
       -0.002509942 0.092152365 -0.11213395 -0.023736892
0001f0 f6 8b d7 bd 89 84 32 3e c3 a0 db 3d bc fb 78 3d
       -0.10524742 0.1743337 0.10724022 0.060786948
000200 56 23 02 3c 9e fe 71 be 4c 21 6a 3e 94 ba b2 3e
       0.007942995 -0.23632285 0.22864264 0.34907973
000210 4d 0b 83 3e 0b 27 07 3e 5d 72 6f bc 9e 02 dd 3e
       0.2559456 0.13198487 -0.014614669 0.4316606
000220 83 d0 ba 3e e5 01 87 3e ea 01 68 3e dc 3b ce 3c
       0.36487207 0.26368633 0.2265698 0.025175028
000230 c9 8b 91 3e 48 75 c0 3e 59 6c 5d 3e e3 f5 52 3e
       0.2842696 0.37589478 0.21623363 0.20601611
000240 30 48 d9 3c ff fa e4 3d 14 fd 20 3e 19 e4 7d 3e
       0.02652368 0.11180686 0.15721542 0.24794044
000250 91 9f 0e 3e e0 50 90 bc 8e 57 44 3e 7a 3f 42 3e
       0.13928057 -0.01761669 0.19174024 0.18969527
000260 e6 42 e1 3e 72 1d d6 3e 8d f2 1e 3e 7d 68 bd 3d
       0.43996352 0.4181934 0.15522213 0.09248445
000270 70 e7 a3 3e c4 ff 9b 3e 30 8a 31 3e a6 ad 29 3c
       0.3201251 0.3046857 0.1733787 0.010356342
000280 67 4d 47 3e 9d 3c 39 3e e2 9c 27 3c 4e 29 8d bd
       0.1946312 0.18089528 0.010230275 -0.06892644
000290 1e 5f 90 bc fb 7c 94 3d 08 01 de bd aa 71 30 be
       -0.01762348 0.07250401 -0.108400404 -0.1723086
0002a0 4e 00 98 be 4d 63 19 3e f4 0a 43 bd 4f d0 c0 be
       -0.29687732 0.14979286 -0.047617868 -0.37658927
0002b0 75 99 02 bf 25 09 52 be da 8a 99 3e d6 dd 81 be
       -0.51015407 -0.20511301 0.29988748 -0.2536456
0002c0 2e 7b df bd c7 e3 95 be b6 80 b9 be 90 25 ba be
       -0.109121665 -0.29275343 -0.3623101 -0.36356783
0002d0 9a 22 17 be 27 2d 4f be d5 ef f1 bd 80 d6 be be
       -0.14759293 -0.20232068 -0.118133225 -0.37273026
0002e0 2d 8d a7 be a2 04 51 3e 57 f0 e6 bd 89 2c a4 be
       -0.32724896 0.20411924 -0.1127631 -0.32065228
0002f0 1d 7b 9f be 3b 11 50 bc 0e 83 4c 3e 56 66 9d bd
       -0.31148615 -0.012699421 0.19971868 -0.07685535
000300 50 d0 cf be ed 73 2a be 49 75 d5 3e 41 70 5e 3e
       -0.40588617 -0.16645785 0.41691044 0.21722509
000310 dc 43 ea bd a9 b5 a2 be bc 15 cf 3d 8c b0 d3 3e
       -0.114387244 -0.3177922 0.101115674 0.41345632
000320 96 79 9b bd 33 73 ea bd b1 36 05 bd be d5 19 bd
       -0.0759155 -0.11447754 -0.03252286 -0.037557356
000330 dd 53 8c be 71 64 70 3e 23 ac 2f 3d 20 4e 49 bd
       -0.27407733 0.23475815 0.04288877 -0.04914677
000340 6b e9 59 be 9f df a3 bd c8 1b 88 3e f7 1f 98 3d
       -0.21280448 -0.08001637 0.26583695 0.07427972
000350 0f ab c7 bd b3 c0 31 be 19 fa 79 bd ce 75 8f 3e
       -0.09749424 -0.17358665 -0.061029527 0.28019565
000360 e4 a8 bf 3d e3 c3 9c be f3 00 17 be c1 cb 95 3e
       0.09358385 -0.306182 -0.14746456 0.29257014
000370 43 0e d8 3e 23 ea 4b bc 1a 16 8d be bb 30 ef 3d
       0.4219838 -0.012445959 -0.27555925 0.116792165
000380 45 cd e2 3e ee 0f e6 bd 2e 81 5c bd 4a 01 32 bd
       0.44297233 -0.11233507 -0.053834133 -0.04345826
000390 96 91 28 3d 12 68 de bd d4 de ec bd 3e 1b 55 3c
       0.041154467 -0.108596936 -0.115659386 0.013006983
0003a0 e3 9b 68 3e 72 07 ad bd 90 a3 b2 be 7d 06 39 3c
       0.22715716 -0.08448686 -0.34890413 0.011293051
0003b0 7b cd 0e be 00 d7 c3 3e 5e af 6b 3e ad 02 0f bf
       -0.13945572 0.3824997 0.23016116 -0.5586346
0003c0 d9 2b 9f 3b 68 12 29 be 99 41 3d 3e 1c 31 8d 3e
       0.004857522 -0.16510928 0.18482055 0.2757653
0003d0 07 b0 96 be 1c 64 9e bd cc cc 30 3e 5e 32 35 3e
       -0.29431173 -0.07733938 0.17265624 0.17694995
0003e0 50 f7 09 3d 5a 4e ee bc 27 96 d8 3d 48 cd 18 3e
       0.03368312 -0.029090095 0.10575514 0.14922059
0003f0 cf 7e 93 3e d6 61 57 bb 48 30 27 3e ca 7f 8b bd
       0.28807685 -0.0032864711 0.16327012 -0.06811483

conv1.bias f4 [6]
000000 8a fd a2 be 25 2d ac 3e e6 c1 84 be c3 28 49 bd
       -0.3183406 0.33628193 -0.25929183 -0.04911114
000010 28 3d d5 be 7e 2e 37 be
       -0.4164822 -0.17888829

conv2.weight f4 [16, 6, 5, 5]
000000 37 8c ae bd 38 cd f7 bd 31 f4 d3 bd ac 92 99 bd
       -0.085228376 -0.12099689 -0.1034931 -0.074986786
000010 e8 10 29 be 7f 3f 9e 3b 8b 5c e3 bd c8 e2 bf bd
       -0.16510355 0.0048293467 -0.111016355 -0.09369427
000020 ba c1 10 3d 3b bf 81 bc 55 3e 65 bd 1e a2 d4 bb
       0.035341002 -0.015838256 -0.055967648 -0.0064890524
000030 45 e2 a4 bd ac 04 11 be 58 01 15 be dc 39 38 3c
       -0.0805097 -0.14161938 -0.14551294 0.0112442635
000040 ff dc f0 bd e3 8a 68 bd e2 2c fd bd 73 a2 8b bd
       -0.11760902 -0.056773078 -0.12362076 -0.06818094
000050 db fe 2e 3e b1 53 92 3d ed 05 a1 bd ce 38 ad 3c
       0.17089407 0.07144869 -0.078624584 0.02114525
000060 3a e9 36 3c c9 0c bb 3d cc 13 99 bd 21 d5 64 bc
       0.011164004 0.09133298 -0.07474479 -0.0139668295
000070 47 42 11 bd 74 23 e4 bd b6 5e b8 bc e0 28 89 bd
       -0.035463598 -0.11139575 -0.0225061 -0.066972494
000080 52 c9 a5 bd d6 ad 00 3c 4f aa 4c bd 03 97 38 3d
       -0.080950394 0.007853946 -0.049967106 0.04506589
000090 2b 6d 18 3d 6a 21 bd 3d 32 a7 12 bd f7 64 44 3d
       0.037213486 0.09234889 -0.03580398 0.04794785
0000a0 84 6d 79 3b e3 5c 3d bc 18 45 d5 bc 5a 10 c8 bc
       0.0038059661 -0.01155779 -0.026033923 -0.02442186
0000b0 b0 9a d1 bc 61 08 4e bd 4f 74 e2 3b a0 0d 5a 3c
       -0.025586456 -0.05030096 0.0069108377 0.0133089125
0000c0 ac 06 72 bd 15 65 af 3d b7 93 0b be 7b 57 78 bd
       -0.059088394 0.08564202 -0.13630567 -0.060630303
0000d0 9f 21 00 3c ac cf e3 39 41 4e 0e 3d f4 9a 1f be
       0.007820516 0.00043451542 0.034742597 -0.15586454
0000e0 0c 67 61 bd 9e be 02 be 89 08 fa bc 82 c7 14 be
       -0.055029914 -0.12768027 -0.030521648 -0.14529231
0000f0 3a c9 89 bc e2 11 8d bb db fa 50 bc e6 3b db bd
       -0.016819585 -0.0043051103 -0.012755121 -0.10704784
000100 95 ea b8 bd 24 18 3b bc 18 6d ef ba 04 a6 a8 bd
       -0.09029118 -0.01141933 -0.0018266765 -0.0823479
000110 ab 42 17 be 20 98 fd bd 5b 38 7b bc 31 dd a9 bc
       -0.14771526 -0.12382531 -0.01533326 -0.020735355
000120 e9 a2 35 3d a9 65 b0 3d 03 5a a9 3d 67 fa 54 bc
       0.044344816 0.0861314 0.082691215 -0.012999154
000130 00 36 7d bd 05 bf 3b 3d 7b f8 a0 3c e0 8d 41 bd
       -0.061819077 0.045836467 0.019649735 -0.047254443
000140 ef e1 15 3d 1f ac 09 bb 98 7d f8 3c dc d9 44 bd
       0.03659242 -0.0021007133 0.030333325 -0.04805933
000150 32 2b 0c 3d 6e b8 a2 3c 45 53 7c 3d e3 15 97 3d
       0.03422088 0.019863334 0.06160285 0.073772214
000160 32 6c 1e 3d 21 e1 70 bc d9 84 71 bd 1c f7 03 3d
       0.0386774 -0.014702112 -0.058964584 0.032218084
000170 b6 54 95 3d 21 2d 8f 3d e3 28 af 3c 11 ef b6 bd
       0.07291548 0.069910295 0.021381801 -0.08932317
000180 ab 42 19 be 1c 70 71 bd 19 88 81 3c 53 ac a9 3d
       -0.14966838 -0.058944806 0.015811967 0.08284821
000190 23 6b c6 3b f4 92 82 bc 71 21 a8 bb 72 b4 8c bd
       0.006055252 -0.015939213 -0.0051309397 -0.06870355
0001a0 20 6e c9 3b e0 e2 f8 bc 2a 3e a9 bc de fd 2d 3d
       0.006147161 -0.03038162 -0.020659525 0.042478435
0001b0 8a fa fb bd 35 22 5a bc cc bc 50 3a 06 49 68 3a
       -0.12303646 -0.01331382 0.0007962703 0.0008860979
0001c0 a6 eb 08 be 1e 25 87 bd 09 7d 3b bd 20 af 4b 3e
       -0.13371143 -0.065988764 -0.04577354 0.19891024
0001d0 b7 52 a9 3d 56 e8 35 3c 62 ce 30 bd f4 35 7a b9
       0.0826773 0.0111027565 -0.043165572 -0.00023861957
0001e0 fd 9b 5b 3e 30 3f 8b 3e 4e 6b 7c 3e 23 82 5b 3e
       0.21446224 0.27196646 0.24650308 0.21436362
0001f0 3e 14 80 3d 2b c3 ed bd 14 aa fd bd 40 b8 b7 bd
       0.06253861 -0.11609491 -0.123859555 -0.0897069
000200 92 1e 3f be 81 0f 38 bd e9 64 33 be e6 ff 51 be
       -0.18664005 -0.04493666 -0.17518963 -0.20507774
000210 ab cb 0f be 6e a7 14 be 1b 7c 9a bd 59 f4 d6 bc
       -0.14042537 -0.14516994 -0.075432025 -0.02623956
000220 26 6b fa bc d9 c6 ea bd 6b 53 a5 ba 28 74 8d 3b
       -0.03056867 -0.114637084 -0.0012613361 0.0043168254
000230 55 69 0d 3e e1 a2 dd 3d 2a 5e b3 3d 6b af fd 39
       0.13809712 0.10822082 0.08758195 0.00048386617
000240 d5 df 22 3e d2 86 c2 3d cc 2e 62 3e 9f 8e 9c 3e
       0.15905698 0.09498371 0.22088164 0.3057756
000250 ce 20 b0 3e 56 17 ae 3d d5 fc 6a 3e 19 bd 83 3e
       0.34400028 0.08500545 0.2294801 0.25730208
000260 c0 88 7a 3e 42 e6 25 bb 9c 72 a1 bd 99 a4 84 3d
       0.24466228 -0.0025314246 -0.07883188 0.06476707
000270 7a e1 8e 3e f3 0e 99 3e 07 90 01 3d 02 e4 57 bd
       0.279064 0.29894218 0.031631496 -0.05270768
000280 2e db 80 3b b4 39 18 3e 5a 7b 88 3d 88 2b c4 ba
       0.0039323783 0.14865762 0.066641524 -0.0014966587
000290 ca 10 cf bd 5b e3 0a 3d ef 54 3b bd 94 66 e8 bd
       -0.10110624 0.03390823 -0.045735296 -0.1134769
0002a0 0d 2b 17 be a1 39 a0 bd d9 3b 49 bd 01 89 38 bd
       -0.14762516 -0.07823492 -0.04912934 -0.045052532
0002b0 f9 9f ef bd 80 50 fc bd c5 ca 1f be 15 4c 4c 3e
       -0.11700434 -0.12320042 -0.15604694 0.19950898
0002c0 d1 8d e2 3d 36 9d 06 3c 2c 63 b7 3c 90 17 af 3c
       0.110622056 0.008216193 0.022386156 0.02137354
0002d0 4c 23 f5 3d b1 85 ba 3d 3f c1 c9 bd 92 a4 96 bd
       0.11969623 0.09107531 -0.09851312 -0.07355608
0002e0 39 d1 7e bd 08 e3 da bb f8 cd 81 bd ca 8f f2 3c
       -0.06221125 -0.0066798963 -0.063381135 0.02960958
0002f0 f7 52 fe bb c1 b1 97 bd 54 eb 0e 3d ca ed d3 bd
       -0.007761355 -0.07406951 0.034892395 -0.10348089
000300 3b ed 27 3d 94 66 04 bd 11 3e a8 bc 2d 23 ce 3c
       0.040997725 -0.03232439 -0.020537408 0.025163257
000310 94 3d f9 3c b0 ec c1 bc a0 c0 80 3d b1 67 c8 bc
       0.03042487 -0.023672432 0.0628674 -0.024463506
000320 4a 18 5d 3c 9e 81 1d 3b 2e b6 5e bd 2d 7f 0e be
       0.0134945605 0.0024033557 -0.05437296 -0.13915701
000330 96 1d a0 bc 38 39 ad 3c 0a 90 79 3d 8e 98 9e bc
       -0.019545358 0.021145448 0.060928382 -0.019359853
000340 3a 40 19 3e 6b 2f a5 bd a5 e4 27 3e 76 71 2d be
       0.14965907 -0.08065685 0.16395815 -0.16937813
000350 1f dd c5 3b e1 49 7e 3e 36 e4 82 bd 72 a7 55 3d
       0.0060383226 0.2483287 -0.06391184 0.05216164
000360 7a fd 0e be 94 1b 23 3d 32 ea dc 3d 22 96 59 bd
       -0.13963881 0.039821222 0.10786857 -0.053121693
000370 4d 01 63 bc d5 16 da bd 98 8f 01 3c e7 a3 23 3e
       -0.013855291 -0.10648886 0.007907771 0.15980493
000380 bf bc 7c 3d b9 b0 2d 3e df 25 8a 3d 32 02 a9 bd
       0.06170344 0.16961946 0.067455046 -0.08252372
000390 44 50 8c 3c 4f b4 88 3d 70 95 38 bd 4a 94 9d 3c
       0.017128117 0.06675016 -0.04506439 0.019235749
0003a0 f0 3f 1c 3e 50 d3 89 bd ef 7f 9e bd b3 11 82 bd
       0.15258765 -0.06729758 -0.07739245 -0.06351032
0003b0 9b a8 dd 3d 8e a7 6a 3e c4 e1 9e bd b5 14 4e bd
       0.108231746 0.2291548 -0.07757905 -0.050312717
0003c0 48 cc f2 bd 30 5f 04 bd 34 b8 8f 3e cf 93 06 bd
       -0.1185537 -0.03231734 0.28070223 -0.032855805
0003d0 fe 05 7b bd 38 81 11 be f6 15 64 3b 75 6a 8b 3e
       -0.06128501 -0.1420945 0.0034803129 0.27229658
0003e0 a1 ef db bd 6a 74 2c be 6c 97 d5 3d 9e 3d 44 3d
       -0.10739065 -0.16841283 0.10429272 0.047910325
0003f0 f6 6a 68 bc fe 41 bd bb 41 d0 e8 3d 4f 0b 0a 3e
       -0.014185658 -0.005775689 0.11367846 0.13480876

conv2.bias f4 [16]
000000 6f 04 3a be fe 23 58 be c7 df ce 3e 23 30 1b 3e
       -0.18165754 -0.2110748 0.40405104 0.15155081
000010 ec c8 38 bf ba dd 97 3e 3b ea 0f be 69 30 0f 3f
       -0.7218158 0.2966135 -0.14054196 0.55933243
000020 5e f6 73 3e a7 55 47 be c9 69 40 3f 5e 72 75 be
       0.2382445 -0.19466268 0.75161415 -0.23969409
000030 05 52 ca 3c 5f 0a 47 3d de 4e 66 be ca 05 52 3e
       0.024697313 0.048593875 -0.22491023 0.20510021

fc1.weight f4 [120, 400]
000000 6f 28 f4 ba 22 6f 89 3b c9 01 93 bd ab 7b 3c bc
       -0.0018627773 0.0041941563 -0.07178075 -0.011504094
000010 5e 3e e7 bb 65 b6 e2 3c ea 06 6b bd aa 76 f0 bc
       -0.0070569953 0.027674863 -0.05737964 -0.029353458
000020 71 87 bb bc 47 13 79 3c 0f 09 fe 3b f4 d9 97 bc
       -0.022891732 0.01520235 0.0077525447 -0.018536545
000030 0e c7 e4 bc 87 e5 15 bd 0e e3 49 3d f4 87 d6 3d
       -0.027926948 -0.036595847 0.0492888 0.1047515
000040 93 75 af 3d 9f 50 aa 3c d3 74 ca 3b 0c 1f ca 3d
       0.085673474 0.020790396 0.0061784773 0.09869203
000050 54 e1 88 3d d0 1c 45 3d c9 9a 98 3d 6b 4b a6 3d
       0.06683603 0.04812318 0.07451398 0.081198536
000060 b2 a9 4a 3d b3 7e 24 3d 6e 2b 09 bd ca 78 d4 bb
       0.04947824 0.040159892 -0.033488683 -0.0064841257
000070 c1 84 88 3d 6d d1 5b bc 5f f3 a9 3b 8d 82 ba bb
       0.06665946 -0.01341663 0.005186483 -0.0056918324
000080 19 63 a0 3d 66 95 64 3d e8 0b c7 bc 52 3f 09 3d
       0.078314014 0.05580654 -0.02429767 0.033507653
000090 28 f5 1b 3d e4 0f 03 bc ac f2 5c 3d e1 7a 63 bd
       0.038075596 -0.007999394 0.053942367 -0.05553711
0000a0 22 6b 7a 3d 76 7f 9b 3b 78 a9 8e bc 7f f7 12 3d
       0.061137326 0.004745419 -0.017414793 0.035880562
0000b0 43 f7 91 3c 73 9c 65 bc e1 a6 e8 3c b3 95 23 bd
       0.017818099 -0.014014351 0.028399887 -0.039937686
0000c0 32 4f e1 3c 75 ea 9e bc e7 a0 2b 3c ee 36 65 3d
       0.027503584 -0.019398907 0.010475374 0.05596059
0000d0 be 4d 00 bd 04 6c eb bc 2d c3 dc bb 90 68 94 bd
       -0.03132414 -0.02873803 -0.006737134 -0.07246506
0000e0 a9 9f 4a 3d d6 9f 41 3b 3b 3f 8a bc 3b 8b 47 3c
       0.04946867 0.0029544733 -0.016875854 0.012179191
0000f0 84 0f 81 bd aa fa 73 3c 0b e5 8b 3c c9 43 f5 bc
       -0.063017875 0.014891306 0.01707699 -0.029939549
000100 88 f6 35 bb d4 d0 e2 bc 5e d6 27 bd ac f0 30 bd
       -0.0027765352 -0.027687468 -0.04097592 -0.043198273
000110 e9 90 ef 3c e7 57 94 bd ab 7f 12 3d a6 96 0e 3d
       0.029243903 -0.072433285 0.035766285 0.03481164
000120 0a c3 ae bd 5f 1e 9f bd 56 e7 89 bd eb 17 13 bd
       -0.085332945 -0.07769465 -0.06733577 -0.03591148
000130 48 da 3f 3c 4d 26 c1 3b 1a 9f 43 bd 17 1a fe bb
       0.011709757 0.0058944584 -0.047759153 -0.007754575
000140 14 98 4b bc a7 b0 15 3d 53 c5 91 bd 0f 5d 8d bd
       -0.012426395 0.036545422 -0.07117715 -0.06902515
000150 17 6a 84 bd f7 f7 37 bd 18 7d 36 3d 7b cf b5 bd
       -0.064655475 -0.044914212 0.044552892 -0.088774644
000160 0e 8f a0 bd bd 0d 15 bd a5 38 35 bd 00 e0 83 bd
       -0.078397855 -0.036390055 -0.044243474 -0.06439209
000170 8d 4e b5 3c 6f ff 5f bd 88 e2 2f 3b e2 55 74 3c
       0.022132182 -0.05468696 0.0026837904 0.014913054
000180 63 00 8a bc 62 a4 9e bc de 18 08 3d 65 57 55 bc
       -0.016845888 -0.019365493 0.03322684 -0.013021325
000190 da b0 47 bc f0 51 e5 3c cc ab 9e bd 8e 7a 07 bd
       -0.012188161 0.027993172 -0.077476114 -0.03307586
0001a0 fa 77 06 bd 01 02 70 3b 65 02 0e bd 0f bd 21 bd
       -0.032829262 0.0036622288 -0.034670252 -0.03948694
0001b0 d3 ef 6e bc 94 d8 91 bd ff 98 01 bd e0 2a 85 3c
       -0.014583546 -0.07121387 -0.03164005 0.016255796
0001c0 c6 2e 29 bd e1 cf 74 bd 98 38 69 3d c8 e6 81 3d
       -0.041304372 -0.05976856 0.056938738 0.06342846
0001d0 57 d0 2e bb 41 f2 02 3d 43 6d 23 bd 03 bf b6 3d
       -0.0026674473 0.031969313 -0.039899122 0.08923151
0001e0 35 a9 19 bd 01 8b 18 3d 9f 34 10 3d ab 1e 1d bd
       -0.037514884 0.03724194 0.035206433 -0.038359325
0001f0 ed ed 63 3e fb 44 79 bd e6 ab a1 bd ea c8 84 bd
       0.2225873 -0.0608568 -0.07894115 -0.06483634
000200 96 79 08 bd 13 3f fc bc 93 9a 82 bd b5 4c 71 bd
       -0.03331908 -0.030791795 -0.06377139 -0.058911044
000210 da da 83 3c fb 7a 5c bd 04 4a b0 bc 59 97 68 bd
       0.016095567 -0.05382822 -0.021519668 -0.05678496
000220 55 89 a8 bd fe 9a 25 3c 48 3a 79 3c 41 b5 df bd
       -0.08229319 0.010107754 0.015211649 -0.10923243
000230 c8 f4 28 3c e4 31 05 bd 32 4c 27 bd 77 c8 37 bd
       0.010312267 -0.032518283 -0.04084415 -0.044868913
000240 32 71 e7 3c 1a 1e 30 3d 29 b3 8b bb ef b2 1f 3d
       0.028252218 0.042997457 -0.004263301 0.038989004
000250 b1 a0 d6 bb d7 96 1c bd 59 16 5c bd c4 44 1a 3d
       -0.0065499176 -0.03822979 -0.05373225 0.037663236
000260 bb 91 15 3a f2 29 48 3d 35 8b 2c 3d a5 8d cc bd
       0.00057056145 0.048868127 0.042124946 -0.09987954
000270 e0 1d 02 bd fd a5 c1 3c bc 01 d4 3c ea 03 49 bd
       -0.031766772 0.02363872 0.025879733 -0.049076
000280 76 ea ac bb 60 fc cd bc aa 0f dd bc c1 e7 23 39
       -0.0052769734 -0.025144756 -0.026985008 0.00015631226
000290 6a 2e 0a 3c 2b 16 ef bc fc ab 6e bd 4c e6 63 3d
       0.008433918 -0.029185375 -0.058269486 0.05563955
0002a0 19 1b 84 3c 07 35 ed 3b 2a 29 cb 3c 52 99 40 3d
       0.016126202 0.0072389874 0.024799902 0.047021218
0002b0 08 ef 62 bb 9a 7a d3 3c 11 34 ca bc ee 5c f6 3c
       -0.0034627337 0.025815297 -0.02468303 0.03007361
0002c0 6f 09 04 3c 5f 40 82 bd dc e1 16 3d da 65 85 bb
       0.00805889 -0.06359934 0.03683649 -0.0040709795
0002d0 6e 89 ba 3a bb c4 c0 3c 59 bf 32 bd a5 2d 19 bd
       0.0014231631 0.023531308 -0.043639515 -0.037397046
0002e0 45 4b c8 bb 4c 8f 3c bd 2a ed 01 bd ba 03 a8 3c
       -0.0061124885 -0.046035096 -0.031720318 0.02050959
0002f0 ab e0 8b 3c c2 96 ab bd a1 61 62 bd c5 19 14 3d
       0.017074903 -0.08378364 -0.055268887 0.03615739
000300 3c 73 03 bd 72 44 17 bb 0d 99 31 bd 5c c0 d7 bd
       -0.032092318 -0.0023081568 -0.04335885 -0.105347365
000310 1d 0e 3c bd 2e 2f 9c bd 48 7a 71 bd c4 64 a5 bd
       -0.045911897 -0.07626186 -0.058954507 -0.0807586
000320 7e d2 a4 bb 19 ab 8f 3d 61 4f dc 3c b6 0e 23 bc
       -0.0050299754 0.07015056 0.02689332 -0.009952238
000330 58 9c 86 3a 9b 4f 08 3c 3a 9b 04 3d 83 34 5b 3c
       0.0010269983 0.008319761 0.032374598 0.013379219
000340 a1 bd e1 b9 18 54 2e 3c 40 4b 97 3c 00 a3 8e bd
       -0.0004305663 0.010640167 0.0184685 -0.069646835
000350 2c a8 58 bd de bd 4a bd c0 f9 0e bc c0 ab 4f bc
       -0.052894756 -0.049497478 -0.008726537 -0.012675226
000360 42 f3 a2 bd 0c a7 cd bb 41 5b 8d 3c 74 65 21 3d
       -0.07956554 -0.006276017 0.017255427 0.039403394
000370 98 73 32 bd 76 5d bb bd ac 1d cd bd 20 62 e2 bb
       -0.04356727 -0.09148686 -0.10015425 -0.00690867
000380 3d 40 4c bc 6a c3 b7 3b 22 6d 9a 3c d9 b7 35 3d
       -0.0124664875 0.005608012 0.018850867 0.044364784
000390 64 22 c5 bc 05 3d 1a 3d a4 cd 0c 3d 26 33 26 bd
       -0.02406425 0.03765585 0.0343758 -0.040576123
0003a0 c3 92 52 bc 9f 26 37 bc 29 16 68 bd b4 a8 53 3d
       -0.0128523735 -0.011178642 -0.05666176 0.05167456
0003b0 12 d1 9a 3b 5f 62 0e bd 38 ca 05 3d 22 94 08 3d
       0.00472463 -0.034761783 0.032663554 0.033344395
0003c0 3e 44 b2 3d 2e 83 06 3b 2a 29 20 3d 9a fb 85 3d
       0.087044224 0.0020524967 0.039101757 0.0654213
0003d0 d0 86 17 bd 70 6e d9 3d 80 55 93 bc 6a 17 7f bc
       -0.0369938 0.106167674 -0.017985106 -0.015569547
0003e0 fa f7 34 3d 63 5c 4f bc c0 50 37 3c 53 ae 27 3d
       0.0441818 -0.012656304 0.011188686 0.040937733
0003f0 05 f0 db bc 4e ab 0b 3d f2 bd c5 ba 80 70 6b 3c
       -0.026847849 0.034098916 -0.0015086515 0.014370084

fc1.bias f4 [120]
000000 5d 3d 77 bd f6 91 d7 3c 0b 55 9a 3d 2c ed 5d bc
       -0.060361255 0.026314717 0.07535752 -0.013545316
000010 d9 39 e8 3d 6e 30 36 bd 94 a2 cc bb 8d 2d 12 3e
       0.113391586 -0.04447978 -0.0062449668 0.14275189
000020 84 58 09 3e 89 bf 2d 3d a5 f2 ca 3d 26 f4 ba bd
       0.13412672 0.04241899 0.09909562 -0.09128599
000030 22 8f db 3c 25 7e cc bd 38 fc 12 3d 4d 62 81 bd
       0.02680165 -0.09984998 0.035885066 -0.063175775
000040 ac 36 3c 3d b4 fa be 3d ab cc ef 3b af 6f 2e 3e
       0.045950577 0.093251616 0.0073180995 0.17034791
000050 c0 be d5 bd f8 3f f9 bd 8c 85 0c bd bf b6 be bc
       -0.10436773 -0.12170404 -0.034307048 -0.0232805
000060 29 8b d3 3d a5 72 3c bc fc 23 d5 bc 18 3b a1 3d
       0.10329277 -0.011501943 -0.026018135 0.07872599
000070 b1 22 0c be 0f d9 87 bb ec 4f 1d bd f3 26 d3 ba
       -0.13685109 -0.0041457484 -0.038406298 -0.001610963
000080 a1 e9 3a be 02 05 25 3e a3 64 1d 3d 3a 4a e6 bd
       -0.18253185 0.16115192 0.038426053 -0.11244626
000090 d4 1f 7b 3d 21 42 a4 3d f4 0c 85 3c d2 1e 3c bc
       0.06130965 0.080204256 0.016241528 -0.0114819575
0000a0 1b f9 04 3e 3c 55 78 3d 38 ea 74 3d a1 c7 f2 3d
       0.12985651 0.06062816 0.05979368 0.118544824
0000b0 a6 27 97 3c 36 f4 cf 3b 1d 00 4d 3e ad b9 41 3b
       0.018451523 0.006346251 0.20019574 0.0029560134
0000c0 52 be 51 3c 7e 0e 4a 3e 3c b7 e6 3b 97 b4 4a bd
       0.012801724 0.19732091 0.007040886 -0.04948863
0000d0 ec 9c 97 bc e8 7a f8 3d d8 86 c3 3c bd 47 83 3d
       -0.018507443 0.121328175 0.02386801 0.06410167
0000e0 83 d1 4f 3d c3 7f 3d bd a2 8f b3 3c 02 a7 21 bd
       0.050736915 -0.04626442 0.021919075 -0.03946591
0000f0 9d 05 0b be 61 d1 ed bc a6 08 83 bb b1 b8 c9 3d
       -0.1357636 -0.029030504 -0.0039988337 0.0984968
000100 5c af 54 bc b6 95 e9 bd f2 31 8c bd 7a e2 ab 3b
       -0.012981262 -0.11405508 -0.06845464 0.005245504
000110 61 06 7b 3d 25 f2 85 bb 51 3e 14 3d 2d b2 a2 3d
       0.06128538 -0.004087704 0.036192242 0.079441406
000120 e3 8b 06 bd 71 1b 93 3c e2 54 e5 3d f5 d4 77 bc
       -0.03284825 0.017957421 0.11197831 -0.0151264565
000130 e2 6c cc bc 0d 96 b5 3d 7f 69 1e 3d 90 3e 29 3d
       -0.024954263 0.088665105 0.038674828 0.04131943
000140 c8 57 9a 3d 47 ff 20 3e da eb 0e 3d 34 30 5c 3d
       0.07536274 0.1572238 0.034892894 0.053756908
000150 32 e7 5c bc b5 ef 46 bd 6e 1f 6c be 6f 70 55 bd
       -0.013482856 -0.048568446 -0.23058864 -0.05210918
000160 1e d9 15 3e df bf 26 3e c3 be 58 bc 61 33 e4 3d
       0.14633605 0.1628413 -0.013229075 0.11142612
000170 0d c4 96 bc 9a 78 6e bb e1 76 89 3d e5 b5 4a bb
       -0.018404031 -0.0036387802 0.067121275 -0.0030931171
000180 06 07 9e b9 84 4b 2e bd 86 1e 95 3c 62 bb c7 bc
       -0.0003014134 -0.042552486 0.018203031 -0.024381343
000190 a0 07 18 bd 01 e6 f0 3c 66 de db bb c6 fd ff bc
       -0.037116647 0.02940655 -0.0067098616 -0.031248938
0001a0 a4 42 8f 3c a2 9e b6 ba fe a7 e0 3c b9 9f c2 bc
       0.017487831 -0.0013932774 0.027423855 -0.023757802
0001b0 20 43 ae 3c f8 44 b7 3d 30 47 29 3c 69 35 88 3d
       0.021272242 0.089487016 0.010331914 0.06650812
0001c0 f9 61 49 3d 06 40 6a bc 89 69 83 bd 2c 8e fc 3d
       0.0491657 -0.014297491 -0.064166136 0.12331805
0001d0 ce a3 5b 3e dc 7b 6d be 00 c0 d8 3d da dc 94 bc
       0.21449205 -0.2319178 0.10583496 -0.018171716

fc2.weight f4 [84, 120]
000000 9b f2 41 bd 6e 9d a1 3d b0 d1 47 bc ca 81 c0 3c
       -0.047350507 0.078913555 -0.0121959895 0.023499388
000010 69 b5 04 bd 1c 95 99 bd 81 a3 02 3d 3b 24 03 3d
       -0.03239957 -0.074991435 0.03189421 0.032016974
000020 9c 05 0d 3d 88 e3 d1 3b de b6 1d bd e7 93 6e 3d
       0.034429178 0.0064052977 -0.038504474 0.05824652
000030 e3 68 66 3d 42 9d 28 3d 8e 31 15 3d 5c c0 45 bc
       0.05625237 0.041165598 0.036424212 -0.012069788
000040 7e 9b 2e 3d 5c 58 a2 bd 51 b1 aa 3d df e1 ce bd
       0.042628758 -0.079270095 0.08334602 -0.10101675
000050 61 54 9f 3c b3 51 36 bd 92 06 b8 3d 25 5f 9b bc
       0.019449415 -0.04451151 0.08985628 -0.018966267
000060 9d e0 ec bd 55 ee a7 bc 32 5f 00 3d 2c d0 c1 3d
       -0.11566279 -0.020499388 0.031340785 0.09463534
000070 93 85 8f 3d 75 5f f5 bb 12 03 0a 3c 1f 36 3a bd
       0.07007899 -0.007488186 0.008423584 -0.04546177
000080 0f e9 a9 3b d4 46 a7 bd 36 6a c3 3d ca 43 cf 3d
       0.0051852535 -0.08167806 0.095417425 0.101203516
000090 40 fd 82 3d 96 9d 27 3d e1 b0 39 3d 57 5e 75 bd
       0.0639596 0.04092177 0.0453347 -0.059904423
0000a0 3b c6 d5 3c 0a 74 88 bd 86 32 87 bd e4 e6 c2 3d
       0.0260955 -0.06662758 -0.066014335 0.09516695
0000b0 69 60 07 bd 1c 68 ff 3c 4f 16 65 3d 12 30 0b bd
       -0.03305093 0.031177573 0.05592948 -0.03398139
0000c0 55 95 be 3d a8 29 1c 3d 60 92 75 bd 1d 34 24 3d
       0.093058266 0.038125664 -0.059954047 0.04008876
0000d0 dd f8 f8 3d e7 61 08 3e 4d 5c ac 3d dd d9 21 bd
       0.12156842 0.13318597 0.084160425 -0.03951441
0000e0 29 0d 3b bd 1b ee 7d bc ca 18 ef bc d3 a3 82 3d
       -0.045666847 -0.015498663 -0.029186625 0.06378903
0000f0 6f db 56 bd 06 34 6f bd 03 36 8e bd e1 4b 2a bc
       -0.052455362 -0.058399223 -0.06943896 -0.0103940675
000100 de 6a 32 3d 86 f1 d2 3c f5 4b bf bc bf 8f 1d 3d
       0.043558948 0.025749933 -0.023351649 0.038467165
000110 c0 55 82 3c d7 c5 f2 bc 5c 2f c3 bc c2 18 8d 3c
       0.01591003 -0.029635353 -0.023826294 0.01722372
000120 f9 8f 9c bd 67 0b d6 3c 58 a1 85 3d 98 a9 65 bd
       -0.07644648 0.026128484 0.065249145 -0.05606994
000130 1d 39 81 bc 84 db 14 bd 24 71 44 bd 92 7b 8d bd
       -0.015774304 -0.03634216 -0.04795946 -0.06908335
000140 7b 02 ba bc 8c d8 4d bd 0c c4 60 bb c5 7c ad bc
       -0.02270626 -0.050255343 -0.003429654 -0.021177659
000150 e4 c7 d7 bd fd 84 df 3d a1 77 5d 3d 26 ca aa 3c
       -0.10536173 0.109140374 0.054069165 0.020848345
000160 c8 79 87 bd 6c 5c aa bd 5e 8e a3 bd 31 2b 8c bd
       -0.06615025 -0.08318409 -0.07986139 -0.068441756
000170 b4 1e 01 bd 7c fb 09 bd d1 06 9c bd 92 5e 42 bc
       -0.03152342 -0.0336871 -0.076184876 -0.011863368
000180 02 a1 b4 3d fe e6 bb 3c 51 92 6c bd d4 5a 1f 3d
       0.08819772 0.022937294 -0.057756726 0.03890498
000190 c8 fc 19 3d 16 b9 a3 3b 29 02 98 3d 2e a2 a5 bd
       0.037594587 0.004996429 0.07422287 -0.08087574
0001a0 45 13 81 3d 09 24 81 3d 91 f5 9a 3d 42 79 e6 3c
       0.063025035 0.06305701 0.07566369 0.028133992
0001b0 3f a0 0b bd 09 07 2c bd bd 23 af 3b bb 26 68 3d
       -0.03408837 -0.041998897 0.0053448365 0.05667756
0001c0 5c d0 0c bd f6 e3 79 3d 78 f0 ab 3d ec e4 94 bd
       -0.034378394 0.061008416 0.08395475 -0.07270226
0001d0 1e 20 f5 bb 93 22 90 3d 3b b1 ba bb 3e 1b 87 bd
       -0.0074806353 0.070378445 -0.005697397 -0.06596993
0001e0 3a 9e 80 3c 52 1a 01 3c 32 c9 a7 bd 10 fa 0e 3c
       0.015700448 0.00787981 -0.08192672 0.008726612
0001f0 62 a7 9c bb d6 91 b2 bd 94 87 1e 3d b7 21 79 3c
       -0.004780696 -0.08719222 0.038703516 0.015205792
000200 e0 36 b3 bd ce 58 49 bd e8 77 eb bd 59 74 44 3d
       -0.08750701 -0.049156956 -0.1149748 0.04796252
000210 20 ba b4 3d 1d 7f 52 bd 78 85 86 3d 85 3c 53 bc
       0.08824563 -0.051390756 0.06568426 -0.012892847
000220 87 d5 1f bc d8 b1 36 3d e5 58 e2 3d b3 8f 0f bd
       -0.009755499 0.0446032 0.110521115 -0.03504915
000230 06 c4 82 3d 29 0f 27 3d 6b 23 80 bc 51 c1 da 3c
       0.06385045 0.040785942 -0.015641889 0.026703509
000240 90 ee 3a 3d e5 b6 ba bd d5 ec 80 bd 8d 3c 24 bd
       0.045637667 -0.091169156 -0.06295172 -0.04009681
000250 cc fa 02 3c e3 58 3f 3d 6c ff 45 bd 07 c5 23 bd
       0.007994365 0.04671563 -0.048339292 -0.03998282
000260 2e de d5 bd 43 9b 23 bd 29 8d 8b 3d d1 89 04 bd
       -0.10442768 -0.03994299 0.068140335 -0.032357994
000270 a8 bb 09 bc 88 b5 f8 3c 92 31 76 bc 5b aa eb bd
       -0.008406557 0.030359998 -0.015026467 -0.11507102
000280 b8 bb 36 3d 83 3e 89 3c 63 43 76 3d b4 93 07 be
       0.044612616 0.01675344 0.06012286 -0.13239938
000290 25 1a 48 3d fb ba bb 3d f3 0c 43 3d 0f 63 c2 bc
       0.04885306 0.09166523 0.04761977 -0.023728875
0002a0 df ed 1d be 59 2d 84 bc 40 bb 90 3d 87 1f c6 3b
       -0.15422772 -0.016134905 0.07066965 0.006046239
0002b0 99 a6 8e 3c 2f fb ad bc ba 71 95 3c 6a c9 81 bc
       0.017413424 -0.021237938 0.018242706 -0.015843112
0002c0 48 6b 71 bc a8 5f 39 bd 78 d5 4a 3c 53 37 8f bd
       -0.0147350505 -0.04525724 0.0123799965 -0.06992974
0002d0 ff 71 22 bd 1b 27 ca bc 9e 74 9c 3d 6f bd de 3a
       -0.039659496 -0.02467685 0.076394305 0.0016993711
0002e0 6b 06 97 bd c5 8b bb 3d 82 ce cc bc 84 13 17 bd
       -0.07374271 0.09157518 -0.025000814 -0.036883846
0002f0 b5 12 2b bc db 03 34 3d c2 39 e6 bd 0f 46 bf bc
       -0.010441472 0.04394899 -0.11241485 -0.023348836
000300 c3 60 07 be cf 5e 62 bc d0 ee 9d 3d 78 1d f9 3c
       -0.13220505 -0.013816549 0.077115655 0.03040956
000310 b4 31 13 bd f8 17 8d bd 97 2f 3c 3d 55 5d e0 3d
       -0.035936072 -0.06889337 0.045943823 0.10955302
000320 2d 63 fd 3d 54 5c bb bd 11 7c 2f bd 5f a5 dd bc
       0.12372432 -0.091484696 -0.04284293 -0.027056394
000330 87 7d 9c 3d bb 5f 5d 3d de 3c ba 3d 05 ff 9b bb
       0.0764113 0.054046374 0.09093641 -0.0047606253
000340 1d 42 20 3d 69 93 b0 bc b7 c1 fd bc 75 a9 27 3d
       0.03912555 -0.021554666 -0.03097616 0.04093309
000350 d3 d7 02 bd b9 b7 6f 3c 1b 12 f4 bd d6 72 ed 3d
       -0.031944107 0.014631205 -0.11917516 0.11594169
000360 22 75 b2 bd f7 e7 9e 3b eb 9a 7a bd ea 4f 1b 3d
       -0.087137476 0.0048494297 -0.061182898 0.03791801
000370 84 bf 09 bc 41 d9 f3 bb e4 3b b3 bd 34 ed 8c 3c
       -0.008407477 -0.00744167 -0.087516576 0.017202951
000380 f9 4e 86 3c aa 70 de 3d 3e 3f a2 bc eb ed df bd
       0.016395079 0.10861333 -0.019805547 -0.10934051
000390 fc aa c5 bd c3 cd 2a bd b8 05 ce 3c 49 34 3b 3d
       -0.09651753 -0.041700136 0.025149211 0.04570416
0003a0 1e a5 c5 3b eb 20 99 bd 76 ac 89 bd a3 79 a0 bd
       0.0060316464 -0.07476982 -0.067223474 -0.078357
0003b0 21 67 9d 3d 56 3e 06 bd 15 25 73 bd b1 12 76 3d
       0.07685686 -0.032774292 -0.059361536 0.06007642
0003c0 33 62 92 bc 9b 4e 2b 3d 04 5a a3 3d af e9 52 bd
       -0.01786909 0.04182301 0.079761535 -0.05149239
0003d0 97 7e ac 3d f4 9f dc bc 54 c0 4f 3d eb 68 63 bd
       0.084225826 -0.02693174 0.050720528 -0.05551998
0003e0 46 96 0e bc 0e 7b d8 bd d4 9d aa 3d 77 11 4f 3d
       -0.00870282 -0.10570346 0.083308846 0.050553765
0003f0 df ae 1c 3e a9 99 6b 3d f4 16 9a 3d 03 3b a4 bd
       0.15301083 0.05751959 0.07523909 -0.08019068

fc2.bias f4 [84]
000000 ac e1 2d 3d ab 2d a7 bd 06 bc 1e 3e b8 23 4d 3d
       0.042451546 -0.08163007 0.15501413 0.050082892
000010 fe 01 d3 bd 00 50 35 3e b0 34 50 b9 ba 78 cb 3e
       -0.10303114 0.17706299 -0.00019856053 0.39740545
000020 f5 60 cd bd 8a 20 0e 3d 4d c5 f2 3d 2f 4d 8b 3e
       -0.10028259 0.034699 0.118540384 0.27207324
000030 ca f1 34 3d 74 5e 99 bc 7a 90 00 3d 39 41 04 3e
       0.0441759 -0.018721797 0.031387784 0.12915505
000040 d8 72 50 3e e7 e3 40 3e 5e d0 3b bd db 34 f8 3c
       0.2035631 0.18836938 -0.04585301 0.030298641
000050 a5 31 11 3d ed fe a2 bd 67 5c cb bd f8 41 78 bc
       0.035447735 -0.079587795 -0.09929734 -0.015152447
000060 fa 74 72 bd 3c 6d 2d be 10 00 92 3d 35 93 e0 3c
       -0.05919359 -0.16936201 0.07128918 0.027413944
000070 d3 12 aa bd 6d bf 92 3a db db 0f be 31 dd 86 3e
       -0.08304372 0.0011195965 -0.14048712 0.2634063
000080 93 0d 91 bd aa 07 c0 3e 99 a6 32 be dc 08 c9 bd
       -0.07082667 0.37505847 -0.17446364 -0.09816143
000090 c3 6f 39 3d 72 47 34 3e 74 98 fe bd 31 70 99 3e
       0.0452726 0.17605379 -0.12431422 0.29968408
0000a0 2d af 62 3b 23 89 9e 3e f7 4d 0a bc a2 f6 9c bd
       0.0034589276 0.30964002 -0.00844144 -0.07664229
0000b0 e0 e6 bd bd ea b6 ed 3b a3 56 15 3e 48 51 0d be
       -0.092725515 0.007254471 0.1458383 -0.13800538
0000c0 97 19 a8 bc d2 d1 52 bd e6 44 57 3c 16 1f 2e bd
       -0.020520015 -0.05146963 0.013138985 -0.042510115
0000d0 ef 92 90 3e b5 09 9c 3e 67 d6 62 bd dc 88 10 3e
       0.282371 0.30476156 -0.05538025 0.14114708
0000e0 6a fe 6a bd c9 d4 d0 3d 85 79 e0 bb eb 64 12 3d
       -0.057371534 0.101968355 -0.0068504238 0.035740774
0000f0 f5 93 d8 bd 9d 81 69 bc c1 52 b1 3c 37 a3 ed b9
       -0.105750956 -0.014252094 0.021645905 -0.00045325767
000100 eb 1d 28 bd 27 a0 07 bc 69 96 ea 3b fe 40 f7 3c
       -0.041044157 -0.008277929 0.0071590436 0.030182358
000110 a1 73 6d 3e df a0 b6 be 97 45 d9 bd e8 72 e9 bd
       0.2318864 -0.3566961 -0.10608976 -0.1139887
000120 4a 75 f3 3d 18 6c 82 3e e1 1d 68 3e 08 61 d9 3e
       0.118876055 0.25473094 0.22667648 0.4245684
000130 24 d6 83 3e 05 c2 66 3d ba 1c 40 bd a6 74 80 3e
       0.25749314 0.056337375 -0.046902396 0.25088996
000140 b8 0a 4c bd 9a fa 96 3c 2e da 05 3e 67 15 fa bc
       -0.04981491 0.018430043 0.1307151 -0.030527784

fc3.weight f4 [10, 84]
000000 a9 cc 4d 3e 7c 40 07 bd 94 cd 52 3e d0 4c 2d 3e
       0.20097603 -0.03302048 0.20586234 0.16923833
000010 71 4a 1d 3e 7d f4 fd 3d db 59 98 3d cd df 3f 3e
       0.15360428 0.12400148 0.074390136 0.18737717
000020 f7 e1 22 bd bf 58 08 be 62 f0 c7 3d 9a 74 c3 3d
       -0.039766278 -0.13315104 0.09762646 0.09543724
000030 ad 55 65 bd a4 58 ae bc 84 c6 92 3d 7a 18 31 bd
       -0.05598991 -0.021282502 0.0716677 -0.043236233
000040 d2 f5 9d bb c7 f5 a3 bd c4 67 85 3b a9 d8 13 bd
       -0.004820564 -0.08005863 0.0040712077 -0.036095295
000050 07 c9 06 3d 2c 9c b4 3d e2 88 76 bc 04 2d bf bd
       0.03290656 0.0881885 -0.015047284 -0.09334758
000060 8b fe 45 3e c9 c1 d0 3c 5d ee 5d 3d 03 66 b3 bd
       0.19335382 0.025483029 0.0541824 -0.087596916
000070 00 61 3e bd 4f 97 48 be 0e 67 b8 3d a8 0b 88 be
       -0.046479225 -0.1958897 0.09004031 -0.26571393
000080 4a 80 f1 bd a2 f8 92 3e 53 11 af 3d e4 0a d6 3d
       -0.11792047 0.28705317 0.08548226 0.10451296
000090 f5 65 28 3e ce df 2b be 43 1e 17 bb 50 a6 11 be
       0.16445144 -0.16784593 -0.002305881 -0.142236
0000a0 6d bc d9 bd b2 56 f1 bd 3f 57 cb bd 2d 59 a5 bc
       -0.106316425 -0.11784114 -0.0992875 -0.020184124
0000b0 57 22 a7 bc 99 88 6c 3d 57 e0 60 be 72 ef 3d 3d
       -0.020402117 0.057747457 -0.21960579 0.04637093
0000c0 fb 4b 6d bd 99 59 ad bd 24 0e aa bd 2c 03 50 3e
       -0.05793379 -0.08464355 -0.08303478 0.2031371
0000d0 8f dd b6 3c 41 90 35 3e c2 c0 77 bd 92 fb 0c 3d
       0.022322444 0.1773081 -0.060486563 0.034419604
0000e0 9b 80 3e bc 8a 3c be 3d 8b 0b 84 bd 65 7d 41 be
       -0.011627342 0.09288891 -0.06447514 -0.1889549
0000f0 2a 2d ca bc 7d 26 1b bc c9 f9 3c 3e 6e f6 b5 3d
       -0.024679739 -0.009469626 0.1845466 0.08884893
000100 76 24 20 be 0b 11 29 be 3b 05 ac bd c1 62 93 bd
       -0.15638909 -0.16510408 -0.08399435 -0.0719657
000110 a3 86 92 bd 30 3a d0 39 d5 23 76 bd e1 f0 62 3e
       -0.07154586 0.00039716205 -0.060092766 0.221622
000120 00 95 b3 3d 83 22 ca 3e 0e f0 4e be 6b 2c 66 be
       0.08768654 0.39479455 -0.20208761 -0.22477882
000130 73 a7 17 be 85 18 53 be e2 74 f4 3a c0 4a 9e 3e
       -0.1480997 -0.20614822 0.0018650556 0.30916405
000140 8a 96 8e bd 32 d0 e1 bd 63 a1 36 bc 26 29 0f 3c
       -0.06962307 -0.11026038 -0.011146876 0.008737838
000150 55 17 5b bd 55 c7 af 3d ea 2f b8 3c 72 9e 9f 3c
       -0.053489048 0.085829414 0.022483785 0.019484732
000160 a4 f7 88 bd e4 9f 56 3e cf 45 fc bc 7f 60 12 bd
       -0.06687859 0.20959431 -0.030795006 -0.035736557
000170 90 60 7a 3d 7c 45 83 bd 1f d8 b4 3d e1 7a ab be
       0.061127245 -0.064097375 0.08830284 -0.33492187
000180 2b ad ed 3d 3e c9 dd bd c5 24 a8 3d 35 4a 0f be
       0.11605295 -0.108293995 0.08210138 -0.13993151
000190 0e 90 51 3c 9e 95 da bd 2d 53 9e 3d 29 a6 9e bd
       0.012790693 -0.106730685 0.07730708 -0.07746536
0001a0 16 5c c6 3e 69 68 85 3d 11 a6 94 bd 17 cf 02 bd
       0.3874213 0.06514055 -0.07258237 -0.031935778
0001b0 b9 7b 3c 3e 4c dc 58 be 28 0d 71 3d 24 5b 67 3d
       0.18406571 -0.21177787 0.058850437 0.056483403
0001c0 9c db 92 bd a3 a9 78 3d ff c6 c7 3d ec 7f 50 be
       -0.071707934 0.060708653 0.09754752 -0.20361298
0001d0 d1 c4 24 3e 32 63 43 3e 7f e2 7e 3e 9d 01 a2 3e
       0.16090705 0.19080809 0.24891089 0.31641856
0001e0 5f 72 4c 3e 28 a7 2c 3e 44 3f 20 3e dd d4 34 be
       0.19965504 0.1686064 0.15649134 -0.17659326
0001f0 29 9b 9b 3c b2 ba 6e be 67 1b 2b bd 0b 19 ca bd
       0.018994885 -0.23313406 -0.04177418 -0.09868058
000200 1b 7f 8b 3e ba 4d 4b be 39 f8 7e be 9a 06 ec 3d
       0.2724541 -0.19853869 -0.24899377 0.11524697
000210 c0 72 ff 3b c8 79 89 3c a3 ea a3 3d 5e 0a 1f 3c
       0.0077956617 0.016781703 0.08003738 0.009707062
000220 7c 29 84 bd 7c 1b 64 be 3a c5 b3 3d 3a cf 19 be
       -0.06453225 -0.2227611 0.08777852 -0.15020457
000230 65 34 57 3c 93 05 79 bd cc 7d 45 3d 0a 2c ec bd
       0.01313505 -0.06079633 0.048215672 -0.11531837
000240 60 90 23 bd c9 3c 75 bb da c4 19 be 5e 34 d4 3c
       -0.03993261 -0.0037420264 -0.15016499 0.025903877
000250 a7 e2 e7 3d f0 ef b2 bd 0c a2 4e bd 40 3b 59 3d
       0.113225274 -0.08737171 -0.05044751 0.05303502
000260 f3 b1 19 be 8d ce 56 3e 94 9f a3 3d c7 c9 e7 3c
       -0.15009288 0.2097723 0.079894215 0.028294457
000270 1e d4 c8 bd c3 74 02 be 39 f5 9b 3d c2 f2 c1 be
       -0.09806083 -0.12739854 0.07615132 -0.37880522
000280 96 19 b5 be 4f e6 8d bd 99 fa 64 bd d4 e7 88 bd
       -0.35371083 -0.069286935 -0.05590305 -0.06684843
000290 a8 a8 81 3b 10 cd 8e 3d 4c 57 fd bd c5 20 44 bd
       0.003956873 0.06972706 -0.12370166 -0.047882814
0002a0 54 d8 01 3e 75 bd cc bd de 4e af bc e1 aa 21 3e
       0.12680179 -0.099970736 -0.021399911 0.15787841
0002b0 c9 8d a3 bc 56 7d 63 be f9 ec fa 3d 95 4f b9 3d
       -0.01996507 -0.2221578 0.1225223 0.09048382
0002c0 c5 95 b9 bc 04 7f b9 3c 59 b0 b5 3d 8e 91 b1 3e
       -0.022654423 0.022643574 0.08871526 0.34681362
0002d0 f5 49 3f 3c e6 15 d6 3c e8 67 fc 3c 69 d1 17 3e
       0.011675348 0.026133489 0.030811265 0.14825977
0002e0 ad cc 97 bd 03 7f 83 bd cb 4b b3 bd 56 ce 37 be
       -0.07412086 -0.0642071 -0.08754691 -0.17949805
0002f0 cf c3 80 be 08 0f 46 3d b0 c9 83 bd 2a fe b6 3c
       -0.2514939 0.04835418 -0.06434953 0.022337992
000300 90 75 71 be 92 6b dc bd 8f 7d 0f 3c 84 99 09 be
       -0.23580003 -0.10762705 0.008757963 -0.13437468
000310 1e 93 9e 3d 68 b8 a5 3d 50 38 87 3d 3b 17 1a 3e
       0.07742904 0.08091813 0.06602538 0.15047924
000320 30 03 da bd b8 ba 37 be ae cc 5b 3d b1 d8 c2 3d
       -0.10645139 -0.17942321 0.053661995 0.09513987
000330 63 e7 ac bd de af ef bc a0 9d f8 3d d9 8d c5 3e
       -0.08442571 -0.029258665 0.121394396 0.38584784
000340 71 44 8c 3d 9b 08 ec 3d b0 71 00 3d b0 f2 d5 3d
       0.06848992 0.11525079 0.03135842 0.104466796
000350 cf ae ca 3d 8d c9 d3 bd 40 fb fb 3d 59 2b ad 3d
       0.09896623 -0.10341177 0.123037815 0.084555335
000360 75 e2 a5 3c fa f7 92 bd 61 f0 36 bd 5e 93 18 bd
       0.020249585 -0.07176204 -0.044662837 -0.037249915
000370 3a 7e 2a be 92 34 e8 3d 88 b9 0a bd 09 c0 bc 3b
       -0.16649714 0.11338152 -0.033868343 0.005760197
000380 16 40 6f 3d a3 48 52 3d c5 95 59 3c ab 20 91 3e
       0.058410726 0.051338803 0.013280337 0.28345236
000390 c7 c2 78 bd 89 b7 21 bd 2a 84 c7 bb 05 53 76 bd
       -0.06073263 -0.039481673 -0.006088753 -0.060137767
0003a0 98 f7 c1 bd e7 ef d5 bd df d9 a0 bd 4d c5 d7 bd
       -0.09471053 -0.10446148 -0.078540556 -0.10535679
0003b0 1b 0f 29 3e 77 28 82 bb 21 45 9c 3d 16 6f 68 3e
       0.16509669 -0.003972109 0.07630373 0.22698626
0003c0 85 77 bb 3c 5a 6e 74 3e 83 57 f3 bc 6a bb 0c 3d
       0.02288414 0.23870221 -0.029704815 0.03435842
0003d0 d2 74 06 3e 5e a9 ac 3d 30 e1 ec bd 14 34 bd 3d
       0.13130501 0.08430742 -0.115663886 0.09238449
0003e0 5e 3b eb bc 8c 4a 8f 3c 34 1b 91 bd 14 7f 9f bd
       -0.028714832 0.017491601 -0.07085267 -0.0778791
0003f0 96 c6 a5 3c 39 cf 91 bd 4d a4 9a bd 53 97 cf 3d
       0.020236295 -0.07119603 -0.07550869 0.10136285

fc3.bias f4 [10]
000000 81 2d 11 be fc ce 13 bf 9e b2 22 3e 3e 60 a8 3e
       -0.14177515 -0.5773771 0.1588845 0.32885927
000010 90 44 cd 3e 48 de 26 be e0 98 be 3d c6 2b e5 be
       0.40091372 -0.16295731 0.09306502 -0.4475996
000020 92 ff 03 3f 8d 53 9f be
       0.51561844 -0.31118432
